…
            "deleting": false
          }
        }
      }
    },
    {
      "cell_type": "code",
      "source": [
        "import whisper\r\n",
        "\r\n",
        "whisper.load_model(\"base.en\", download_root=\"./model\")"
      ],
      "outputs": [
        {
          "output_type": "stream",
          "name": "stderr",
          "text": "100%|███████████████████████████████████████| 139M/139M [00:03<00:00, 40.5MiB/s]\n"
        },
        {
          "output_type": "execute_result",
          "execution_count": 3,
          "data": {
            "text/plain": "Whisper(\n  (encoder): AudioEncoder(\n    (conv1): Conv1d(80, 512, kernel_size=(3,), stride=(1,), padding=(1,))\n    (conv2): Conv1d(512, 512, kernel_size=(3,), stride=(2,), padding=(1,))\n    (blocks): ModuleList(\n      (0): ResidualAttentionBlock(\n        (attn): MultiHeadAttention(\n          (query): Linear(in_features=512, out_features=512, bias=True)\n          (key): Linear(in_features=512, out_features=512, bias=False)\n          (value): Linear(in_features=512, out_features=512, bias=True)\n          (out): Linear(in_features=512, out_features=512, bias=True)\n        )\n        (attn_ln): LayerNorm((512,), eps=1e-05, elementwise_affine=True)\n        (mlp): Sequential(\n          (0): Linear(in_features=512, out_features=2048, bias=True)\n          (1): GELU(approximate=none)\n          (2): Linear(in_features=2048, out_features=512, bias=True)\n        )\n        (mlp_ln): LayerNorm((512,), eps=1e-05, elementwise_affine=True)\n      )\n      (1): ResidualAttentionBlock(\n        (attn): MultiHeadAttention(\n          (query): Linear(in_features=512, out_features=512, bias=True)\n          (key): Linear(in_features=512, out_features=512, bias=False)\n          (value): Linear(in_features=512, out_features=512, bias=True)\n          (out): Linear(in_features=512, out_features=512, bias=True)\n        )\n        (attn_ln): LayerNorm((512,), eps=1e-05, elementwise_affine=True)\n        (mlp): Sequential(\n          (0): Linear(in_features=512, out_features=2048, bias=True)\n          (1): GELU(approximate=none)\n          (2): Linear(in_features=2048, out_features=512, bias=True)\n        )\n        (mlp_ln): LayerNorm((512,), eps=1e-05, elementwise_affine=True)\n      )\n      (2): ResidualAttentionBlock(\n        (attn): MultiHeadAttention(\n          (query): Linear(in_features=512, out_features=512, bias=True)\n          (key): Linear(in_features=512, out_features=512, bias=False)\n          (value): Linear(in_features=512, out_features=512, bias=True)\n          (out): Linear(in_features=512, out_features=512, bias=True)\n        )\n        (attn_ln): LayerNorm((512,), eps=1e-05, elementwise_affine=True)\n        (mlp): Sequential(\n          (0): Linear(in_features=512, out_features=2048, bias=True)\n          (1): GELU(approximate=none)\n          (2): Linear(in_features=2048, out_features=512, bias=True)\n        )\n        (mlp_ln): LayerNorm((512,), eps=1e-05, elementwise_affine=True)\n      )\n      (3): ResidualAttentionBlock(\n        (attn): MultiHeadAttention(\n          (query): Linear(in_features=512, out_features=512, bias=True)\n          (key): Linear(in_features=512, out_features=512, bias=False)\n          (value): Linear(in_features=512, out_features=512, bias=True)\n          (out): Linear(in_features=512, out_features=512, bias=True)\n        )\n        (attn_ln): LayerNorm((512,), eps=1e-05, elementwise_affine=True)\n        (mlp): Sequential(\n          (0): Linear(in_features=512, out_features=2048, bias=True)\n          (1): GELU(approximate=none)\n          (2): Linear(in_features=2048, out_features=512, bias=True)\n        )\n        (mlp_ln): LayerNorm((512,), eps=1e-05, elementwise_affine=True)\n      )\n      (4): ResidualAttentionBlock(\n        (attn): MultiHeadAttention(\n          (query): Linear(in_features=512, out_features=512, bias=True)\n          (key): Linear(in_features=512, out_features=512, bias=False)\n          (value): Linear(in_features=512, out_features=512, bias=True)\n          (out): Linear(in_features=512, out_features=512, bias=True)\n        )\n        (attn_ln): LayerNorm((512,), eps=1e-05, elementwise_affine=True)\n        (mlp): Sequential(\n          (0): Linear(in_features=512, out_features=2048, bias=True)\n          (1): GELU(approximate=none)\n          (2): Linear(in_features=2048, out_features=512, bias=True)\n        )\n        (mlp_ln): LayerNorm((512,), eps=1e-05, elementwise_affine=True)\n      )\n      (5): ResidualAttentionBlock(\n        (attn): MultiHeadAttention(\n          (query): Linear(in_features=512, out_features=512, bias=True)\n          (key): Linear(in_features=512, out_features=512, bias=False)\n          (value): Linear(in_features=512, out_features=512, bias=True)\n          (out): Linear(in_features=512, out_features=512, bias=True)\n        )\n        (attn_ln): LayerNorm((512,), eps=1e-05, elementwise_affine=True)\n        (mlp): Sequential(\n          (0): Linear(in_features=512, out_features=2048, bias=True)\n          (1): GELU(approximate=none)\n          (2): Linear(in_features=2048, out_features=512, bias=True)\n        )\n        (mlp_ln): LayerNorm((512,), eps=1e-05, elementwise_affine=True)\n      )\n    )\n    (ln_post): LayerNorm((512,), eps=1e-05, elementwise_affine=True)\n  )\n  (decoder): TextDecoder(\n    (token_embedding): Embedding(51864, 512)\n    (blocks): ModuleList(\n      (0): ResidualAttentionBlock(\n        (attn): MultiHeadAttention(\n          (query): Linear(in_features=512, out_features=512, bias=True)\n          (key): Linear(in_features=512, out_features=512, bias=False)\n          (value): Linear(in_features=512, out_features=512, bias=True)\n          (out): Linear(in_features=512, out_features=512, bias=True)\n        )\n        (attn_ln): LayerNorm((512,), eps=1e-05, elementwise_affine=True)\n        (cross_attn): MultiHeadAttention(\n          (query): Linear(in_features=512, out_features=512, bias=True)\n          (key): Linear(in_features=512, out_features=512, bias=False)\n          (value): Linear(in_features=512, out_features=512, bias=True)\n          (out): Linear(in_features=512, out_features=512, bias=True)\n        )\n        (cross_attn_ln): LayerNorm((512,), eps=1e-05, elementwise_affine=True)\n        (mlp): Sequential(\n          (0): Linear(in_features=512, out_features=2048, bias=True)\n          (1): GELU(approximate=none)\n          (2): Linear(in_features=2048, out_features=512, bias=True)\n        )\n        (mlp_ln): LayerNorm((512,), eps=1e-05, elementwise_affine=True)\n      )\n      (1): ResidualAttentionBlock(\n        (attn): MultiHeadAttention(\n          (query): Linear(in_features=512, out_features=512, bias=True)\n          (key): Linear(in_features=512, out_features=512, bias=False)\n          (value): Linear(in_features=512, out_features=512, bias=True)\n          (out): Linear(in_features=512, out_features=512, bias=True)\n        )\n        (attn_ln): LayerNorm((512,), eps=1e-05, elementwise_affine=True)\n        (cross_attn): MultiHeadAttention(\n          (query): Linear(in_features=512, out_features=512, bias=True)\n          (key): Linear(in_features=512, out_features=512, bias=False)\n          (value): Linear(in_features=512, out_features=512, bias=True)\n          (out): Linear(in_features=512, out_features=512, bias=True)\n        )\n        (cross_attn_ln): LayerNorm((512,), eps=1e-05, elementwise_affine=True)\n        (mlp): Sequential(\n          (0): Linear(in_features=512, out_features=2048, bias=True)\n          (1): GELU(approximate=none)\n          (2): Linear(in_features=2048, out_features=512, bias=True)\n        )\n        (mlp_ln): LayerNorm((512,), eps=1e-05, elementwise_affine=True)\n      )\n      (2): ResidualAttentionBlock(\n        (attn): MultiHeadAttention(\n          (query): Linear(in_features=512, out_features=512, bias=True)\n          (key): Linear(in_features=512, out_features=512, bias=False)\n          (value): Linear(in_features=512, out_features=512, bias=True)\n          (out): Linear(in_features=512, out_features=512, bias=True)\n        )\n        (attn_ln): LayerNorm((512,), eps=1e-05, elementwise_affine=True)\n        (cross_attn): MultiHeadAttention(\n          (query): Linear(in_features=512, out_features=512, bias=True)\n          (key): Linear(in_features=512, out_features=512, bias=False)\n          (value): Linear(in_features=512, out_features=512, bias=True)\n          (out): Linear(in_features=512, out_features=512, bias=True)\n        )\n        (cross_attn_ln): LayerNorm((512,), eps=1e-05, elementwise_affine=True)\n        (mlp): Sequential(\n          (0): Linear(in_features=512, out_features=2048, bias=True)\n          (1): GELU(approximate=none)\n          (2): Linear(in_features=2048, out_features=512, bias=True)\n        )\n        (mlp_ln): LayerNorm((512,), eps=1e-05, elementwise_affine=True)\n      )\n      (3): ResidualAttentionBlock(\n        (attn): MultiHeadAttention(\n          (query): Linear(in_features=512, out_features=512, bias=True)\n          (key): Linear(in_features=512, out_features=512, bias=False)\n          (value): Linear(in_features=512, out_features=512, bias=True)\n          (out): Linear(in_features=512, out_features=512, bias=True)\n        )\n        (attn_ln): LayerNorm((512,), eps=1e-05, elementwise_affine=True)\n        (cross_attn): MultiHeadAttention(\n          (query): Linear(in_features=512, out_features=512, bias=True)\n          (key): Linear(in_features=512, out_features=512, bias=False)\n          (value): Linear(in_features=512, out_features=512, bias=True)\n          (out): Linear(in_features=512, out_features=512, bias=True)\n        )\n        (cross_attn_ln): LayerNorm((512,), eps=1e-05, elementwise_affine=True)\n        (mlp): Sequential(\n          (0): Linear(in_features=512, out_features=2048, bias=True)\n          (1): GELU(approximate=none)\n          (2): Linear(in_features=2048, out_features=512, bias=True)\n        )\n        (mlp_ln): LayerNorm((512,), eps=1e-05, elementwise_affine=True)\n      )\n      (4): ResidualAttentionBlock(\n        (attn): MultiHeadAttention(\n          (query): Linear(in_features=512, out_features=512, bias=True)\n          (key): Linear(in_features=512, out_features=512, bias=False)\n          (value): Linear(in_features=512, out_features=512, bias=True)\n          (out): Linear(in_features=512, out_features=512, bias=True)\n        )\n        (attn_ln): LayerNorm((512,), eps=1e-05, elementwise_affine=True)\n        (cross_attn): MultiHeadAttention(\n          (query): Linear(in_features=512, out_features=512, bias=True)\n          (key): Linear(in_features=512, out_features=512, bias=False)\n          (value): Linear(in_features=512, out_features=512, bias=True)\n          (out): Linear(in_features=512, out_features=512, bias=True)\n        )\n        (cross_attn_ln): LayerNorm((512,), eps=1e-05, elementwise_affine=True)\n        (mlp): Sequential(\n          (0): Linear(in_features=512, out_features=2048, bias=True)\n          (1): GELU(approximate=none)\n          (2): Linear(in_features=2048, out_features=512, bias=True)\n        )\n        (mlp_ln): LayerNorm((512,), eps=1e-05, elementwise_affine=True)\n      )\n      (5): ResidualAttentionBlock(\n        (attn): MultiHeadAttention(\n          (query): Linear(in_features=512, out_features=512, bias=True)\n          (key): Linear(in_features=512, out_features=512, bias=False)\n          (value): Linear(in_features=512, out_features=512, bias=True)\n          (out): Linear(in_features=512, out_features=512, bias=True)\n        )\n        (attn_ln): LayerNorm((512,), eps=1e-05, elementwise_affine=True)\n        (cross_attn): MultiHeadAttention(\n          (query): Linear(in_features=512, out_features=512, bias=True)\n          (key): Linear(in_features=512, out_features=512, bias=False)\n          (value): Linear(in_features=512, out_features=512, bias=True)\n          (out): Linear(in_features=512, out_features=512, bias=True)\n        )\n        (cross_attn_ln): LayerNorm((512,), eps=1e-05, elementwise_affine=True)\n        (mlp): Sequential(\n          (0): Linear(in_features=512, out_features=2048, bias=True)\n          (1): GELU(approximate=none)\n          (2): Linear(in_features=2048, out_features=512, bias=True)\n        )\n        (mlp_ln): LayerNorm((512,), eps=1e-05, elementwise_affine=True)\n      )\n    )\n    (ln): LayerNorm((512,), eps=1e-05, elementwise_affine=True)\n  )\n)"
          },
          "metadata": {}
        }
      ],
      "execution_count": 3,
      "metadata": {
        "jupyter": {
          "source_hidden": false,
          "outputs_hidden": true
        },
        "nteract": {
          "transient": {
            "deleting": false
          }
        },
        "gather": {
          "logged": 1668801873783
…
